Exp1/Exp1Code/output/best_model.pth (torch, 405730 bytes, 18 tensors)

convpools.0.conv.weight f4 [62, 128]
0	0x000089d5	4.9445e-41
1	0x00008919	4.9181e-41
2	0x000089da	4.9452e-41
3	0x00009bd7	5.5905e-41
4	0x800088bd	-4.9052e-41
5	0x000088bb	4.905e-41
6	0x80008a02	-4.9508e-41
7	0x80008936	-4.9222e-41
8	0x000088bf	4.9055e-41
9	0x000089af	4.9392e-41
10	0x800089c9	-4.9428e-41
11	0x00008973	4.9307e-41
12	0x80008927	-4.9201e-41
13	0x8000899a	-4.9362e-41
14	0x8000895b	-4.9274e-41
15	0x000088ba	4.9048e-41
16	0x800089ee	-4.948e-41
17	0x800090e7	-5.1981e-41
18	0x8000893b	-4.9229e-41
19	0x00008974	4.9309e-41
20	0x80008a11	-4.9529e-41
21	0x800089df	-4.9459e-41
22	0x80008906	-4.9155e-41
23	0x0000895b	4.9274e-41
24	0x000089ff	4.9504e-41
25	0x000089a1	4.9372e-41
26	0x00008c8d	5.042e-41
27	0x800089dc	-4.9455e-41
28	0x00008924	4.9197e-41
29	0x80008b95	-5.0073e-41
30	0x00008a97	4.9717e-41
31	0x80008929	-4.9204e-41
32	0x000089ae	4.939e-41
33	0x00008a2e	4.957e-41
34	0x8000898d	-4.9344e-41
35	0x8000899f	-4.9369e-41
36	0x00009fd6	5.7338e-41
37	0x80008914	-4.9174e-41
38	0x80008a4c	-4.9612e-41
39	0x80008a56	-4.9626e-41
40	0x80008a0c	-4.9522e-41
41	0x000088d8	4.909e-41
42	0x000088ed	4.912e-41
43	0x800088f2	-4.9127e-41
44	0x8000893c	-4.923e-41
45	0x8000898d	-4.9344e-41
46	0x8000a7e3	-6.0226e-41
47	0x800089ee	-4.948e-41
48	0x8000892d	-4.921e-41
49	0x80008920	-4.9191e-41
50	0x800089d1	-4.9439e-41
51	0x80008910	-4.9169e-41
52	0x8000894a	-4.925e-41
53	0x80008948	-4.9247e-41
54	0x80008a02	-4.9508e-41
55	0x0000890c	4.9163e-41
56	0x8000898d	-4.9344e-41
57	0x00009fd4	5.7336e-41
58	0x00008b0f	4.9885e-41
59	0x0000896c	4.9298e-41
60	0x00008900	4.9146e-41
61	0x800089f3	-4.9487e-41
62	0x0000899d	4.9366e-41
63	0x80008aa4	-4.9735e-41
64	0x00008a16	4.9536e-41
65	0x00008960	4.9281e-41
66	0x80008930	-4.9214e-41
67	0x800089e7	-4.947e-41
68	0x00008927	4.9201e-41
69	0x000089b7	4.9403e-41
70	0x80008bc9	-5.0145e-41
71	0x000089c3	4.942e-41
72	0x80008997	-4.9358e-41
73	0x80008970	-4.9303e-41
74	0x00008a0b	4.952e-41
75	0x8000893a	-4.9228e-41
76	0x800088cc	-4.9073e-41
77	0x00008968	4.9292e-41
78	0x800089a9	-4.9383e-41
79	0x80008999	-4.9361e-41
80	0x00008912	4.9172e-41
81	0x800088c3	-4.9061e-41
82	0x00008a12	4.953e-41
83	0x00008932	4.9216e-41
84	0x00008a12	4.953e-41
85	0x00008942	4.9239e-41
86	0x000089ae	4.939e-41
87	0x80008b9a	-5.008e-41
88	0x80008a1d	-4.9546e-41
89	0x800089e2	-4.9463e-41
90	0x000089c2	4.9418e-41
91	0x800089fd	-4.9501e-41
92	0x00008960	4.9281e-41
93	0x00008a4d	4.9613e-41
94	0x00008a35	4.958e-41
95	0x000089d1	4.9439e-41
96	0x000089cf	4.9436e-41
97	0x80008944	-4.9242e-41
98	0x00008918	4.918e-41
99	0x80008b70	-5.0021e-41
100	0x80008971	-4.9305e-41
101	0x00008b79	5.0033e-41
102	0x00008992	4.9351e-41
103	0x800089ef	-4.9481e-41
104	0x0000896b	4.9296e-41
105	0x00008a04	4.951e-41
106	0x800088cc	-4.9073e-41
107	0x80008942	-4.9239e-41
108	0x800088fd	-4.9142e-41
109	0x80008c8a	-5.0416e-41
110	0x800089e5	-4.9467e-41
111	0x80008911	-4.917e-41
112	0x00008a07	4.9515e-41
113	0x000089cc	4.9432e-41
114	0x000088e3	4.9106e-41
115	0x800089bd	-4.9411e-41
116	0x800088bf	-4.9055e-41
117	0x0000897b	4.9319e-41
118	0x8000893d	-4.9232e-41
119	0x800088da	-4.9093e-41
120	0x800088d7	-4.9089e-41
121	0x000089b0	4.9393e-41
122	0x00008a11	4.9529e-41
123	0x80008a1a	-4.9542e-41
124	0x00008935	4.922e-41
125	0x80008abb	-4.9767e-41
126	0x00008b77	5.003e-41
127	0x800088c4	-4.9062e-41
128	0xbd8b8a31	-0.06813467
129	0xbbd54012	-0.006507882
130	0xbbabf29f	-0.0052474285
131	0xbd5dc5c6	-0.05414369
132	0x3c89021a	0.016724635
133	0x3d957f3b	0.07299658
134	0x3d03cd11	0.03217799
135	0x36ee62b4	7.1044433e-06
136	0x3d82f14e	0.063936815
137	0xa903e948	-2.9290182e-14
138	0xbdbb5df3	-0.09148779
139	0xbbcfcf74	-0.006341869
140	0xbcbeaadf	-0.023274837
141	0xbbbbc2cb	-0.0057300082
142	0xbd8ac1a8	-0.06775218
143	0x1c925993	9.684624e-22
144	0xbd9bdfe2	-0.07611062
145	0x3d606043	0.054779302
146	0x3c8f8aa8	0.017522171
147	0x3d7829b3	0.060586642
148	0x3d966c17	0.07344835
149	0x3e4643cb	0.19361798
150	0xbdb9c86f	-0.09071433
151	0xbcd341e6	-0.025788259
152	0x3cc60409	0.024171846
153	0x3d97b20d	0.07407007
154	0x3bf3e5c8	0.0074431635
155	0x3de7dff1	0.1132201
156	0x3dc166f8	0.09443468
157	0xbe460250	-0.1933682
158	0xbc0663de	-0.008202521
159	0x3bcbad6b	0.0062157414
160	0x3b65a0dd	0.003503851
161	0x3b979ef1	0.0046271016
162	0x3cc4e0e9	0.024033027
163	0x3dbfe154	0.0936915
164	0x3db69339	0.08914799
165	0x3dbfbd0b	0.09362229
166	0x3ae1e80e	0.0017235295
167	0x3ccc9e79	0.02497791
168	0x3dd22c07	0.10262304
169	0x3c126830	0.008935973
170	0xbc248de8	-0.010043599
171	0x3dc63085	0.09677223
172	0xbc16a00a	-0.00919343
173	0x3db2b096	0.08725087
174	0x3dba7df0	0.09106052
175	0xbd6e67d4	-0.058204487
176	0xbca91827	-0.0206414
177	0x3cd9ad37	0.026571853
178	0xbc9e7956	-0.019344967
179	0xbbd43292	-0.006475755
180	0x3d2bcb68	0.04194203
181	0x3deb8ac3	0.11501076
182	0x3c1142cb	0.008866022
183	0x3e18db83	0.14927487
184	0x3d7333cf	0.05937558
185	0xbb8beb7e	-0.004270016
186	0xbc94182b	-0.01807793
187	0x3c7aa8b0	0.015299007
188	0x3cca5e1a	0.024703074
189	0xbcc45c62	-0.023969833
190	0x3ce5fe47	0.02807535
191	0x3dde0d60	0.10842395
192	0xbd95eaa5	-0.073201455
193	0x3d5ba0e3	0.05362023
194	0xbd56762e	-0.0523588
195	0x3d99901e	0.07498191
196	0x3c806531	0.015673252
197	0x3d99fc3f	0.07518815
198	0x3d0642f4	0.032778695
199	0x3dd3c810	0.10340893
200	0x3bedd24f	0.0072577368
201	0x3e1ed54c	0.15511054
202	0x3be5d7eb	0.007014265
203	0x3df76891	0.12080491
204	0x3d8b2b9c	0.06795427
205	0x38d874eb	0.0001032146
206	0x3d9f188c	0.07768354
207	0x3e101593	0.1407073
208	0xba93c5c3	-0.0011274148
209	0x3877c083	5.906868e-05
210	0x3cb58e3e	0.022162553
211	0x3c3778fc	0.0111982785
212	0x3d764502	0.060124405
213	0xbd8f9f13	-0.07012763
214	0x3d087a8c	0.033319995
215	0x3e3d93f6	0.18513474
216	0x3d971385	0.0737677
217	0xbabddda5	-0.0014485611
218	0x3dae93b8	0.08524269
219	0x3bbddfcd	0.0057945014
220	0xbc921fc0	-0.017837405
221	0x3ccd6990	0.02507475
222	0x3e15f60e	0.14644644
223	0xbd478def	-0.048719343
224	0x3c1cbb40	0.009566128
225	0x3ec44ce9	0.38339928
226	0x3cd741ad	0.026276434
227	0x3b69c38b	0.0035669531
228	0xbc0f8d31	-0.00876169
229	0xbb36d790	-0.0027899481
230	0x3e1d63ad	0.15370055
231	0x3e307932	0.17233732
232	0xbc85f529	-0.016352253
233	0x3c462059	0.012092673
234	0x3d75a29d	0.059969533
235	0x3d31caf2	0.043406434
236	0xbb666929	-0.0035157895
237	0x36d0ce93	6.2229315e-06
238	0xbb6fa096	-0.0036564223
239	0x3dbd8a15	0.09254853
240	0xbc7e104a	-0.015506813
241	0x3e00958b	0.12557046
242	0x3d5e692a	0.05429951
243	0x3d802854	0.06257692
244	0x3bb68832	0.005570435
245	0xba59df43	-0.00083111617
246	0xbcba8e7b	-0.022773018
247	0xbd64352c	-0.05571477
248	0x3d2a7a3b	0.041620474
249	0x3c820ca0	0.01587516
250	0x3e0a9d9b	0.13536684
251	0xbc43a859	-0.011941993
252	0x3cb89e42	0.0225364
253	0x3c5124ee	0.012765152
254	0xbb17bdb1	-0.0023153836
255	0xbb105c26	-0.002202758

convpools.0.conv.bias f4 [128]
0	0xbd9632ee	-0.07333933
1	0xbd299cd6	-0.041409336
2	0xbd279c75	-0.040920693
3	0x3c3ce015	0.011528035
4	0x3dc7eadd	0.097615935
5	0x3e24b49c	0.16084522
6	0xbc62d356	-0.013844332
7	0xbd866a08	-0.065631926
8	0x3e141db7	0.1446446
9	0xbcaebd40	-0.021330476
10	0x3dc85cc3	0.09783318
11	0xbd11820e	-0.03552442
12	0x3daae5bc	0.083445996
13	0xbd1443fe	-0.036197655
14	0x3e1d01bf	0.15332697
15	0xbb9eb88c	-0.004843777
16	0x3de13e9b	0.10998269
17	0xbd05ff1e	-0.032714
18	0x3dde5709	0.108564444
19	0xbd7900f8	-0.06079194
20	0x3e1595ce	0.14607927
21	0x3da1ac3c	0.07894179
22	0xbc5e0c9e	-0.013552813
23	0xbd5658f6	-0.052330934
24	0x3d17ae0b	0.037031215
25	0x3e17d172	0.14825991
26	0x3ddcb302	0.107763305
27	0x3d5881b4	0.05285807
28	0x3e09a4ba	0.13441744
29	0x3eb4b585	0.35294738
30	0x3e027461	0.12739708
31	0xbd4342c8	-0.04767111
32	0x3d859377	0.06522267
33	0xbd0442fa	-0.032290436
34	0x3e2950a6	0.16534671
35	0x3bb7d96d	0.005610636
36	0x3e94ff01	0.29100803
37	0xbd7e58c2	-0.062096365
38	0xbccd26c8	-0.025042906
39	0x3dd2ae41	0.102871425
40	0x3dc28ece	0.09499894
41	0x3e34bbc8	0.17649758
42	0x3cc3e3dc	0.023912363
43	0x3d07a1d7	0.033113327
44	0x3d9beb28	0.07613212
45	0x3d9d1867	0.0767067
46	0xbd425e10	-0.047452986
47	0x3e09b8b6	0.13449368
48	0xbcb2ce0d	-0.021826768
49	0x3e10853e	0.14113328
50	0x3e0de3b7	0.13856398
51	0x3e6d789c	0.2319054
52	0x3dfc0767	0.123060994
53	0x3b12c5a8	0.0022395644
54	0x3d79c16e	0.060975485
55	0x3d0d7944	0.034539476
56	0x3c577cfb	0.013152356
57	0x3dc9fcbe	0.0986266
58	0x3d75536c	0.05989401
59	0x3cdfa6b4	0.02730117
60	0x3c9060a5	0.017624209
61	0xbcb1c5e7	-0.021700813
62	0x3ccbcec4	0.024878867
63	0x3dfcfe86	0.12353234
64	0xbcd9d991	-0.026593002
65	0x3e1456bb	0.1448621
66	0xbd842e7e	-0.0645418
67	0x3db0a24c	0.08624706
68	0x3e3f295a	0.18668118
69	0x3e1bace3	0.1520267
70	0x3d383efc	0.04498194
71	0xbd3257e5	-0.043540854
72	0x3df5032f	0.11963498
73	0xbd21830a	-0.03943161
74	0xbcc266f8	-0.02373074
75	0x3db9243f	0.090401165
76	0xbcb21f21	-0.021743359
77	0xbcbcea6e	-0.023061004
78	0x3e04a955	0.1295522
79	0x3beb01e1	0.007171855
80	0xbd04dbc7	-0.03243616
81	0x3d97634d	0.07391987
82	0xbc354f3e	-0.011066256
83	0x3d96ddfb	0.07366558
84	0x3dad0f0b	0.08450135
85	0x3db2d536	0.08732073
86	0x3df856c7	0.121259265
87	0x3df78f6f	0.12087905
88	0x3cd16c2f	0.025564281
89	0x3df05898	0.11735648
90	0x3e16ba9a	0.1471962
91	0x3df49c86	0.11943917
92	0x3e405d35	0.18785556
93	0xbd3a9a7c	-0.045557484
94	0x3d8598c2	0.06523277
95	0x3e1e0ff9	0.1543578
96	0xbd28b89f	-0.041191693
97	0x3de149cc	0.11000404
98	0x3dfd4c6e	0.123680934
99	0xbd7ef13b	-0.062241774
100	0xbcce2c64	-0.025167651
101	0x3d3ab5cb	0.045583528
102	0xbcc0daa2	-0.023541752
103	0x3d05faf6	0.032710038
104	0x3dedea1a	0.11616917
105	0xbc9a24e9	-0.018816428
106	0x3d649500	0.05580616
107	0x3d9b53ef	0.075843684
108	0xbd0ffec3	-0.03515507
109	0xbd42abe2	-0.0475272
110	0x3e2d2902	0.16910174
111	0x3db9c62d	0.09071002
112	0x3e11d721	0.14242221
113	0xbd380681	-0.044928078
114	0x3e11f3c6	0.14253148
115	0x3e2487db	0.1606745
116	0xbcee9fa4	-0.029128857
117	0x3dc2c772	0.095106974
118	0xbd60341e	-0.054737203
119	0x3d628356	0.055301033
120	0x3cbe1d35	0.023207286
121	0x3dd507cf	0.1040188
122	0x3dc1cc3d	0.094627835
123	0xbd17094e	-0.036874108
124	0x3dfa0240	0.122074604
125	0x3d0998b3	0.03359289
126	0x3da364f1	0.079782374
127	0xbc8a1ec5	-0.016860375

convpools.0.pool.score_layer.weight f4 [128, 1]
0	0xb9f2a613	-0.00046281572
1	0x3d8513f7	0.064979486
2	0x3cbca869	0.023029523
3	0x3d4e3c1b	0.05035029
4	0x3e2a9b6c	0.16660851
5	0x3e8b1fde	0.2717275
6	0xb83a6999	-4.44442e-05
7	0xb9bff638	-0.00036613806
8	0x3e2de045	0.16980083
9	0x0000939f	5.2956e-41
10	0x3e18318b	0.14862649
11	0x3a397729	0.0007074946
12	0x3ddaf16b	0.10690578
13	0xbbd30876	-0.0064402176
14	0x3e3b2a67	0.18277894
15	0x1dd11e0b	5.5352903e-21
16	0x3e117ddd	0.1420817
17	0x3bf1a232	0.0073740715
18	0x3e26d631	0.16292645
19	0x3d6e955e	0.058247916
20	0x3e7fc12f	0.24976037
21	0x3df78283	0.1208544
22	0xbc29b3ac	-0.0103577785
23	0x3d2ca480	0.042149067
24	0x3d146240	0.03622651
25	0x3e848b9a	0.25887758
26	0x3e216c7a	0.15764037
27	0x3db4b14a	0.08822878
28	0x3e750311	0.23926951
29	0x3e26110c	0.1621744
30	0x3e158665	0.14602049
31	0xbb2b08cb	-0.002609777
32	0x3ddaf988	0.106921256
33	0xbb539cff	-0.0032289622
34	0x3e6cc253	0.23121004
35	0x3b99d275	0.004694278
36	0x3c191a8f	0.009344711
37	0x3c91f02c	0.017814718
38	0xbd1e8a8a	-0.03870634
39	0x3dc05052	0.0939032
40	0x3dc889b3	0.09791889
41	0x3e12b4c4	0.14326769
42	0x3db04927	0.08607703
43	0x3d9720ac	0.073792785
44	0x3e23ffae	0.16015503
45	0x3e00732f	0.12543939
46	0x3bf91778	0.0076016746
47	0x3e128adc	0.14310783
48	0x3c853631	0.016261192
49	0x3e276239	0.16346063
50	0x3e50ae60	0.20379019
51	0x3e2a5adf	0.16636227
52	0x3e194168	0.14966357
53	0x3c8a0b4a	0.016851086
54	0x3d57df1d	0.05270301
55	0x3dc72289	0.09723384
56	0x3c9006fe	0.01758146
57	0x3de36ddc	0.111049384
58	0x3d4d22a0	0.05008185
59	0x3d846aca	0.06465681
60	0x3c98dc3b	0.018659702
61	0x3ab08928	0.001346861
62	0x3dd1c5bf	0.10242795
63	0x3e863d2e	0.2621855
64	0xbafd301b	-0.0019316705
65	0x3e872277	0.26393482
66	0x3cf5e64d	0.030017043
67	0x3dc5ff57	0.09667843
68	0x3e12dcff	0.14342116
69	0x3e170898	0.14749372
70	0x3cf730c3	0.030174619
71	0xbc5b820a	-0.013397703
72	0x3e47062f	0.19435953
73	0x3b0b578b	0.0021261896
74	0x3b871457	0.0041222977
75	0x3e4bca30	0.19901347
76	0x3b9bddce	0.004756666
77	0x3b30bc17	0.002696758
78	0x3e60957d	0.21932025
79	0x3d83e7bf	0.064406864
80	0xbb391629	-0.0028241968
81	0x3e18fcbb	0.14940159
82	0x3979325f	0.00023765255
83	0x3d82c930	0.0638603
84	0x3dbd4625	0.09241895
85	0x3cad9f02	0.021193985
86	0x3e18c0a2	0.14917234
87	0x3e39d3b1	0.1814716
88	0x3ddcd5ac	0.10782942
89	0x3e5c2663	0.21499018
90	0x3e8ad77c	0.27117527
91	0x3e46e53f	0.19423388
92	0x3dd51476	0.10404293
93	0x3d8bff15	0.068357624
94	0x3ddfebea	0.10933669
95	0x3e851c5c	0.259982
96	0x3ce8eb9a	0.028432656
97	0x3e0b8507	0.13624965
98	0x3e21cb1d	0.15800138
99	0xbb136972	-0.002249327
100	0x391b674b	0.00014820432
101	0x3dc05dbc	0.093928784
102	0xbb1a246f	-0.0023520251
103	0x3e59d90a	0.212742
104	0x3e1e5463	0.15461878
105	0x3ba416c4	0.0050075967
106	0x3d846d6f	0.06466185
107	0x3d5a6b32	0.053324886
108	0x3b0f85ec	0.0021899892
109	0xb5d8599d	-1.6119335e-06
110	0x3e5d9ac8	0.21641076
111	0x3e51019b	0.20410769
112	0x3e194809	0.14968885
113	0x3c989492	0.018625531
114	0x3e503e65	0.20336302
115	0x3e662e1b	0.22478525
116	0x3929c124	0.00016189046
117	0x3c917d0f	0.017759828
118	0x3c023a18	0.007948421
119	0x3cdd5023	0.027015751
120	0x3d834ffb	0.064117394
121	0x3e1d4c12	0.1536105
122	0x3dbc2788	0.091872275
123	0x3bf93b2c	0.007605931
124	0x3e5a31a1	0.21307994
125	0x3e4433d5	0.19160397
126	0x3dc4b503	0.09604838
127	0x3ac62c8c	0.0015119477

convpools.1.conv.weight f4 [128, 128]
0	0xb2deea70	-2.5950811e-08
1	0x35934c4c	1.0974559e-06
2	0x339ab439	7.203966e-08
3	0xb450aea3	-1.9435042e-07
4	0x33fb8d2c	1.1713777e-07
5	0x80008b4b	-4.9969e-41
6	0x312f6389	2.552243e-09
7	0x800095dc	-5.376e-41
8	0x0000aa67	6.1129e-41
9	0x3046a836	7.227102e-10
10	0x80003f5b	-2.2728e-41
11	0x3283b207	1.5331365e-08
12	0x33c6c69d	9.256221e-08
13	0x34879688	2.5255235e-07
14	0x00008a02	4.9508e-41
15	0x3279072e	1.449534e-08
16	0x0000925f	5.2508e-41
17	0x344fd36b	1.935529e-07
18	0x3087f725	9.892785e-10
19	0x361f76d4	2.3762013e-06
20	0x0444073c	2.3043011e-36
21	0xaebd3773	-8.604575e-11
22	0x37c09a0b	2.2959915e-05
23	0x33a71032	7.7794894e-08
24	0x3281243c	1.5034054e-08
25	0x80008982	-4.9329e-41
26	0xb3937566	-6.8665756e-08
27	0x00009c71	5.612e-41
28	0x9a90af8f	-5.9840634e-23
29	0x359714dc	1.1256448e-06
30	0x80009cd0	-5.6254e-41
31	0xb2622a48	-1.3164545e-08
32	0x80008964	-4.9286e-41
33	0x375ac29d	1.30391245e-05
34	0x8ea703e4	-4.1172425e-30
35	0x35ae1f11	1.2973052e-06
36	0xb834967f	-4.3055505e-05
37	0x33dfa29a	1.0413824e-07
38	0xb55cc2eb	-8.224003e-07
39	0xb7dd1cb7	-2.6358624e-05
40	0x0a4d4171	9.882699e-33
41	0x00009bea	5.5931e-41
42	0x3508716c	5.0829e-07
43	0x34eaceae	4.3736276e-07
44	0x324b11ad	1.1820174e-08
45	0x00008b5c	4.9993e-41
46	0xb7aed33b	-2.0840778e-05
47	0x91d72bd7	-3.3948037e-28
48	0xb3ce6872	-9.611621e-08
49	0x97f695d5	-1.59352e-24
50	0x03c13ba3	1.1357212e-36
51	0x0a410ea1	9.2953634e-33
52	0x0000908f	5.1858e-41
53	0x37236063	9.737999e-06
54	0x80009056	-5.1778e-41
55	0x34064d21	1.2507782e-07
56	0x000089c8	4.9427e-41
57	0x35ce3582	1.5363769e-06
58	0xb3b8c15e	-8.603341e-08
59	0x3287377e	1.5741303e-08
60	0x323f29b9	1.112715e-08
61	0x323e81ec	1.1088996e-08
62	0x35625353	8.4312813e-07
63	0x000094b2	5.3342e-41
64	0xb384e486	-6.188297e-08
65	0x8000a284	-5.83e-41
66	0x8000897c	-4.932e-41
67	0x3336af69	4.253471e-08
68	0x39f1214d	0.00045991913
69	0xb5194f1a	-5.711205e-07
70	0x3590b088	1.0780213e-06
71	0x35837fb3	9.797426e-07
72	0x8000a8b4	-6.0519e-41
73	0xb350cb02	-4.861341e-08
74	0x00008a8c	4.9701e-41
75	0xb70174de	-7.716209e-06
76	0x8000907e	-5.1834e-41
77	0x800089cb	-4.9431e-41
78	0xb7612d8e	-1.3421652e-05
79	0xb573cb8c	-9.0820754e-07
80	0xb29c5ce9	-1.820304e-08
81	0x000091af	5.2261e-41
82	0x31099958	2.002329e-09
83	0x352dff41	6.4818965e-07
84	0xb5688ff3	-8.663621e-07
85	0x0ff1414a	2.3789583e-29
86	0xb6db596c	-6.5371187e-06
87	0xb451fc4b	-1.9556425e-07
88	0x370a361c	8.238039e-06
89	0x330714e5	3.145114e-08
90	0x000098a9	5.4764e-41
91	0x80009343	-5.2828e-41
92	0xb79dc9e4	-1.8809871e-05
93	0x358ae8ae	1.034952e-06
94	0x337d42a7	5.8966773e-08
95	0x00009bf0	5.594e-41
96	0x342010fe	1.4907343e-07
97	0xb8338ff8	-4.2811007e-05
98	0xb48c300b	-2.6111988e-07
99	0x8000adfa	-6.2411e-41
100	0xb2ebc427	-2.74468e-08
101	0x0000897f	4.9324e-41
102	0xb3f03b7e	-1.11866925e-07
103	0x35d91a25	1.6175369e-06
104	0x341d7852	1.4665537e-07
105	0x3485825f	2.4868038e-07
106	0x800090af	-5.1903e-41
107	0x00008981	4.9327e-41
108	0x3486a47f	2.5079132e-07
109	0x0000a652	5.9664e-41
110	0x800088d1	-4.908e-41
111	0x347e7b06	2.3700349e-07
112	0x0000aa85	6.1171e-41
113	0x37a8b99b	2.011359e-05
114	0x0000a68f	5.975e-41
115	0xa3fd5061	-2.7464357e-17
116	0xaaaba725	-3.0491682e-13
117	0x328d1732	1.6425108e-08
118	0x352e819f	6.5008675e-07
119	0xb7acf93e	-2.062006e-05
120	0x380e45b8	3.392037e-05
121	0x00008f26	5.1352e-41
122	0xb7c36b86	-2.3295881e-05
123	0x37a0f3f9	1.9187095e-05
124	0xb301da3e	-3.0233643e-08
125	0x37c03bc6	2.2916018e-05
126	0x80009b25	-5.5655e-41
127	0x3613d891	2.2030765e-06
128	0xbadefaf5	-0.0017012047
129	0xba499f9e	-0.00076913263
130	0xbaecc503	-0.0018064085
131	0xbb19f739	-0.0023493303
132	0xbb714971	-0.0036817456
133	0x000089b4	4.9399e-41
134	0xb79cf758	-1.8711828e-05
135	0x000089b9	4.9406e-41
136	0x00008cc0	5.0492e-41
137	0xbae25ac6	-0.0017269484
138	0xb7d9dba2	-2.597069e-05
139	0xba916c1c	-0.0011094841
140	0xbae7d211	-0.0017686506
141	0xbb9dd505	-0.0048166537
142	0xb5ebbdf7	-1.7564151e-06
143	0xbad00e66	-0.0015873432
144	0x80008928	-4.9202e-41
145	0xbac7e16d	-0.0015249677
146	0xbaa2b48a	-0.0012413424
147	0xbc602699	-0.013681077
148	0xb3cbe867	-9.495198e-08
149	0xba29db78	-0.0006479542
150	0x3bd504eb	0.0065008304
151	0xbb6fe895	-0.0036607136
152	0xb8a47c2c	-7.843258e-05
153	0x0000952b	5.3511e-41
154	0xb4366552	-1.6986931e-07
155	0x800088d1	-4.908e-41
156	0x9e194380	-8.113711e-21
157	0xbcf91de5	-0.030409763
158	0x006613dd	9.374346e-39
159	0xb7d3f363	-2.5266496e-05
160	0xb78ffcac	-1.7164588e-05
161	0x3b2151e4	0.002461546
162	0xb95398f7	-0.00020179512
163	0xbab5e5d6	-0.00138777
164	0xbd229a28	-0.039697796
165	0xba47e9ea	-0.00076261035
166	0xbba46e7c	-0.0050180536
167	0xba76c643	-0.00094136986
168	0xac2d5b8c	-2.4635597e-12
169	0x2af95abe	4.429425e-13
170	0xbb41f6cc	-0.0029596565
171	0xbae6d591	-0.0017611255
172	0xbb535a39	-0.0032249822
173	0x800088df	-4.91e-41
174	0xbb271173	-0.0025492578
175	0x3239cc66	1.0814892e-08
176	0xbb19ae61	-0.0023449885
177	0x1e2fdce0	9.310099e-21
178	0xb3b7537d	-8.536788e-08
179	0xb493ba04	-2.7516228e-07
180	0x80008a00	-4.9505e-41
181	0x3b86377c	0.0040959697
182	0x80008a1d	-4.9546e-41
183	0xbb80ac04	-0.003926756
184	0x000088fc	4.9141e-41
185	0x3ae8191c	0.0017707678
186	0x3c0d4042	0.008621277
187	0xb7e567ed	-2.7347322e-05
188	0xbb85d5a6	-0.004084307
189	0x3a95b7b0	0.0011422541
190	0xbbf56e8f	-0.0074899863
191	0x000094dc	5.34e-41
192	0xbadff3d8	-0.0017086221
193	0x00008921	4.9193e-41
194	0x2ef2795c	1.10264436e-10
195	0xb8c9501d	-9.599349e-05
196	0x3ca4266d	0.020037854
197	0xbae081d6	-0.0017128538
198	0xbb62e113	-0.0034619018
199	0xbba9257e	-0.00516194
200	0x0000d6f2	7.7108e-41
201	0xbaa6d275	-0.0012727516
202	0x80008959	-4.9271e-41
203	0x3b43588c	0.0029807417
204	0x800088e0	-4.9101e-41
205	0xb5d0b5be	-1.5550102e-06
206	0xb9bbf7f2	-0.00035852153
207	0xbb0ffb2d	-0.002196978
208	0xbb89c710	-0.0042046383
209	0xb511a953	-5.426311e-07
210	0xb94c5f16	-0.00019490378
211	0xbb8afba5	-0.004241424
212	0xba7ad550	-0.0009568529
213	0x9528fed3	-3.412835e-26
214	0x3b1b4fdf	0.002369873
215	0xbaeb42ea	-0.0017949019
216	0x3b886732	0.0041626925
217	0xbb27960f	-0.002557162
218	0x80008c76	-5.0388e-41
219	0x000089bc	4.941e-41
220	0xbb1c8338	-0.0023881923
221	0xbb8d6a26	-0.0043156324
222	0xbb9d63c3	-0.0048031523
223	0x80008a3b	-4.9588e-41
224	0x3b01b55e	0.001979194
225	0xbacf29ce	-0.0015805305
226	0xbb3496dc	-0.002755574
227	0x00008998	4.936e-41
228	0xbb3daf38	-0.002894355
229	0x8f64d0c2	-1.1281473e-29
230	0xb813411c	-3.510817e-05
231	0xbc3343ba	-0.01094144
232	0xbb20b621	-0.002452262
233	0x395a8fbc	0.00020843645
234	0x00008e87	5.1129e-41
235	0x00008952	4.9261e-41
236	0xba99b0f1	-0.0011725706
237	0x0000895c	4.9275e-41
238	0x80008931	-4.9215e-41
239	0xbbe88ac8	-0.007096622
240	0x00008e50	5.1052e-41
241	0x3b99607e	0.004680692
242	0x800089f5	-4.949e-41
243	0xa67afa3d	-8.707531e-16
244	0x30f5ca81	1.7883651e-09
245	0xbb661205	-0.0035105955
246	0xbbb3b79b	-0.005484534
247	0x3bc56099	0.006023478
248	0x3c184ade	0.0092951935
249	0x00008a1b	4.9543e-41
250	0xbb82144f	-0.003969706
251	0x3b8cb32c	0.00429382
252	0xba0e6a58	-0.00054327166
253	0x3ba54716	0.0050438745
254	0x80008a43	-4.9599e-41
255	0x3b82e520	0.003994599

convpools.1.conv.bias f4 [128]
0	0xbb8ab710	-0.0042332485
1	0x3caad732	0.020854566
2	0x3cd2a8e5	0.0257153
3	0x3c9827e6	0.018573713
4	0xbc5b4841	-0.013383926
5	0xb43cc14e	-1.7579188e-07
6	0x3b7d6ce8	0.003866965
7	0xa26b6692	-3.190274e-18
8	0xb48ce44d	-2.6243143e-07
9	0x3aa06823	0.0012238066
10	0xbbaaf7d9	-0.005217534
11	0x3c61d9fb	0.013784881
12	0xbbe4a113	-0.0069772094
13	0x3c8fe781	0.017566444
14	0xbb0e3929	-0.002170155
15	0x3c376934	0.011194516
16	0xb5c1247f	-1.4390242e-06
17	0xbbb3aed7	-0.005483489
18	0x3bc3a1c7	0.005970213
19	0x3c1f3d95	0.009719272
20	0xbb236d50	-0.0024936981
21	0xbada887d	-0.0016672757
22	0x3d11dad7	0.035609093
23	0x3d28cbf8	0.041210145
24	0x3af4cec7	0.0018677347
25	0x9e4d48e3	-1.0867682e-20
26	0xb7c389af	-2.3309925e-05
27	0x8f53d76a	-1.04445904e-29
28	0xb1801c18	-3.728484e-09
29	0x3d7a3663	0.061087023
30	0xb347f4b2	-4.6555847e-08
31	0x3afbf7d8	0.0019223643
32	0xb8997ea5	-7.319198e-05
33	0x3ce0aa77	0.027425034
34	0xbb2c0276	-0.0026246584
35	0x3d5b244d	0.053501416
36	0x3d7f2633	0.06229229
37	0x3c5d78b3	0.0135175465
38	0x3c543292	0.01295151
39	0x3c97e8e5	0.01854367
40	0xb5d9c628	-1.6225431e-06
41	0xb9748cc9	-0.000233221
42	0xbbce7aae	-0.0063012457
43	0x3cc3e414	0.023912467
44	0x3b4bf94e	0.003112394
45	0xa11f3f6d	-5.395524e-19
46	0x36c2df72	5.807663e-06
47	0xbac142d8	-0.0014744652
48	0x3d191f23	0.03738321
49	0xb81b05bc	-3.696022e-05
50	0xbb159c27	-0.002282867
51	0xbadf43f7	-0.0017033805
52	0xad11d5cc	-8.289768e-12
53	0x3c5f7b36	0.013640216
54	0xa85a23ed	-1.2109221e-14
55	0xbb0b5e2a	-0.0021265843
56	0xb4daefe9	-4.0780222e-07
57	0x3cb66d80	0.02226901
58	0xbc62d94a	-0.013845751
59	0x3a13abfd	0.0005633233
60	0xbbb967a2	-0.005658106
61	0x3d11b432	0.03557224
62	0x3bbd57d8	0.005778294
63	0xb62b2903	-2.5504858e-06
64	0x3c9b3794	0.0189474
65	0xb4e8114c	-4.3225953e-07
66	0xba0208c1	-0.0004960411
67	0x3a81d474	0.0009905235
68	0x3da12f87	0.07870393
69	0xbc40bdca	-0.011763999
70	0xbbdce413	-0.0067410558
71	0x3b7c2a8e	0.0038477513
72	0xac27032d	-2.373389e-12
73	0x3d2bfbea	0.04198829
74	0xae2ab4af	-3.8814004e-11
75	0x3ca928f5	0.020649413
76	0xb5050155	-4.95483e-07
77	0xb7a2873c	-1.9374878e-05
78	0xbb136987	-0.002249332
79	0x3c50659d	0.012719539
80	0x3b8f3f4f	0.0043715606
81	0xba1661a6	-0.00057365966
82	0x3ba5249a	0.0050397636
83	0x3c18be90	0.009322777
84	0x3bd04f61	0.006357119
85	0xbab63fc8	-0.0013904506
86	0x3c3d9ca0	0.011572987
87	0x3b36462e	0.0027812826
88	0x3ccdca08	0.02512075
89	0xbc44e230	-0.012016818
90	0xa4c62c9b	-8.5944377e-17
91	0xb4845760	-2.465049e-07
92	0xbb9dd85f	-0.004817053
93	0x3c65f0b2	0.014034437
94	0x3ba3f319	0.0050033447
95	0xabe0e3f0	-1.5979423e-12
96	0x3c613019	0.0137443775
97	0x3bd16fbc	0.0063914936
98	0xbb91e025	-0.004451769
99	0xb518b10d	-5.6882055e-07
100	0x3a941b17	0.0011299577
101	0xb69d8e06	-4.6954983e-06
102	0x3bea6bc4	0.00715396
103	0x3c89d804	0.016826637
104	0x3b33b07c	0.0027418425
105	0x3c277fe1	0.01022336
106	0xae4e71f2	-4.694018e-11
107	0x93eb6984	-5.9426387e-27
108	0x3ba09d9a	0.0049016
109	0xa717b332	-2.1052602e-15
110	0x9a65a353	-4.7488022e-23
111	0x3b6a678b	0.0035767283
112	0xaf8c077b	-2.5471167e-10
113	0x3cb06421	0.02153212
114	0xa6d7f85d	-1.4985941e-15
115	0xb150b184	-3.036889e-09
116	0xb48c93e1	-2.6184628e-07
117	0x3bf26484	0.0073972363
118	0x3cc7e504	0.024401195
119	0x3c990fa3	0.018684214
120	0x3d1c7b41	0.03820348
121	0xb0a6e044	-1.214183e-09
122	0xbbbe9c3c	-0.0058169644
123	0x3c6c5e90	0.014426842
124	0x3af027b9	0.0018322385
125	0x3c8af43d	0.016962165
126	0xb5308ee9	-6.577307e-07
127	0x3c96fedd	0.018432075

convpools.1.pool.score_layer.weight f4 [128, 1]
0	0x3b8a5dee	0.004222623
1	0x3b2d7bc2	0.002647147
2	0x3bb6e631	0.00558164
3	0x3c7a75e4	0.015286896
4	0x3e3cce06	0.18437967
5	0x31b0bef9	5.1439852e-09
6	0x3aa6a5b7	0.0012714182
7	0x800089ed	-4.9478e-41
8	0x0000ace5	6.2023e-41
9	0x3d009bea	0.03139869
10	0x3d0a9f82	0.033843525
11	0x3bbb5ad2	0.0057176137
12	0x3db72aa6	0.089436814
13	0x3c0dd733	0.0086572645
14	0x3b1d7c5b	0.002403042
15	0x3c315821	0.010824234
16	0x3673c5ac	3.6324882e-06
17	0x3c4925d2	0.0122770835
18	0x3c73ad1b	0.0148728145
19	0x3e3d4bb1	0.18485905
20	0x37766112	1.4685344e-05
21	0x3495e71e	2.7921573e-07
22	0xbe0bb017	-0.13641392
23	0x3c48fc85	0.012267237
24	0x3bf378dd	0.0074301795
25	0x00008b22	4.9911e-41
26	0xaa079f48	-1.204567e-13
27	0x8000898f	-4.9347e-41
28	0x00021354	1.90605e-40
29	0x3d173c36	0.036922656
30	0x000093ee	5.3067e-41
31	0x39794751	0.00023773058
32	0xbaeb6914	-0.0017960393
33	0xbc9396dd	-0.018016273
34	0x3b2e1a7b	0.0026566077
35	0xbd71be55	-0.059019405
36	0x3cc0793f	0.023495315
37	0xb9a789fc	-0.00031955529
38	0x3d62c0b6	0.055359565
39	0xbd824fc7	-0.063628726
40	0x8f2e91e5	-8.6069606e-30
41	0x38aa5edf	8.123903e-05
42	0x3dc36c6e	0.09542166
43	0x3b14999d	0.0022674568
44	0x3da3c827	0.079971604
45	0x800089bb	-4.9408e-41
46	0x3c20297b	0.009775515
47	0x3a6ea98c	0.0009104244
48	0xbc217b39	-0.009856039
49	0x1e804bf9	1.3583949e-20
50	0x39376403	0.00017489497
51	0x3a637939	0.00086774264
52	0xa81b1510	-8.608796e-15
53	0xbd99d96c	-0.07512173
54	0x13de8208	5.61689e-27
55	0x3d608557	0.054814663
56	0x2e27fc4a	3.819548e-11
57	0xbd77f194	-0.06053312
58	0x3e477b02	0.19480518
59	0x3a0038cd	0.00048912765
60	0x3deb3d55	0.114863075
61	0xbc6f96f3	-0.014623391
62	0x3dfab19d	0.12240908
63	0x80008ad3	-4.9801e-41
64	0x3be30afe	0.0069288006
65	0x9a4bcc76	-4.2144578e-23
66	0x36438f2e	2.9140606e-06
67	0x3a085a03	0.0005201401
68	0xbe279150	-0.16364026
69	0x3dcef586	0.10105424
70	0x3e103dad	0.14086027
71	0x3e2169b4	0.15762979
72	0x0000aa16	6.1015e-41
73	0xbc83c1f7	-0.0160837
74	0x80008909	-4.9159e-41
75	0xbdbbc574	-0.091685206
76	0x379944db	1.8271085e-05
77	0xba1d9510	-0.0006011287
78	0xb840a7df	-4.593271e-05
79	0x3c273064	0.010204408
80	0x3da21d5a	0.079157546
81	0xba8f2298	-0.0010920344
82	0x3ad9f8b9	0.0016629911
83	0x3d3b3413	0.04570396
84	0x3c0630d5	0.008190353
85	0x36aa16cb	5.0690483e-06
86	0xbd93fc80	-0.07225895
87	0x3d8e97a9	0.06962521
88	0xbd2ffb03	-0.042963993
89	0x3da957b9	0.08268685
90	0x000088ca	4.907e-41
91	0xb208cb8d	-7.962524e-09
92	0x3bb39f03	0.005481602
93	0x3e179a72	0.1480501
94	0x3cca0be9	0.024663882
95	0x2a766d3a	2.1887085e-13
96	0xbbd4a23b	-0.006489066
97	0xbda7018e	-0.081545934
98	0x3dc4c4a6	0.0960782
99	0x32827a87	1.518971e-08
100	0x3cb837a7	0.022487475
101	0xba98c433	-0.0011655152
102	0x3bb8fabe	0.005645125
103	0x3e0224d4	0.12709361
104	0x3db352a5	0.087559976
105	0xbb7eef7d	-0.003890007
106	0x800089a7	-4.938e-41
107	0x80008903	-4.915e-41
108	0xb993faa5	-0.0002822477
109	0x0444dc1a	2.3140755e-36
110	0x15db3a8f	8.8545785e-26
111	0x3df28bbb	0.11843058
112	0x07cc7090	3.0760667e-34
113	0xbd9fc035	-0.078003325
114	0x00008a4c	4.9612e-41
115	0x91929fa7	-2.3133132e-28
116	0x37eeda0d	2.8473349e-05
117	0x3d4a9969	0.04946271
118	0x3c8b3bea	0.016996343
119	0xbdc13b02	-0.09435083
120	0xbdd94aca	-0.10609968
121	0x34832701	2.442903e-07
122	0x3b9e6098	0.004833292
123	0xbca27709	-0.019832151
124	0x3caed7f4	0.021343209
125	0xbce4bedf	-0.027923046
126	0xb71db877	-9.400878e-06
127	0xbe140dd8	-0.14458406

convpools.2.conv.weight f4 [128, 128]
0	0x80009f49	-5.7141e-41
1	0x80009b55	-5.5723e-41
2	0x1e62065a	1.1965654e-20
3	0x9f28df14	-3.575991e-20
4	0x0000997b	5.5058e-41
5	0x275666cd	2.9754194e-15
6	0x251267f9	1.2698709e-16
7	0x28172942	8.39113e-15
8	0x285db59e	1.2307346e-14
9	0x939fdd78	-4.0355628e-27
10	0xa802982c	-7.249447e-15
11	0xa98a8ede	-6.1532146e-14
12	0x00008e0c	5.0957e-41
13	0xa436fb6e	-3.9677928e-17
14	0xa8ed6440	-2.6355762e-14
15	0x8000a903	-6.063e-41
16	0x0000ab60	6.1478e-41
17	0x0000abc5	6.1619e-41
18	0x28015a84	7.180566e-15
19	0x0000aa80	6.1164e-41
20	0x00009a07	5.5255e-41
21	0x2919cbf4	3.4149726e-14
22	0xa8f9f118	-2.7749111e-14
23	0xa550c721	-1.8108592e-16
24	0x00008f53	5.1415e-41
25	0x293e2a00	4.2224904e-14
26	0x8000a13c	-5.784e-41
27	0x00008f3c	5.1383e-41
28	0x00008ac3	4.9778e-41
29	0xa07fdbd5	-2.1672076e-19
30	0x28e6cd71	2.5624226e-14
31	0xa88f11e7	-1.5883953e-14
32	0xa8e45c7a	-2.535319e-14
33	0xa88bdca8	-1.5527794e-14
34	0x28333f8e	9.950277e-15
35	0x8000a703	-5.9913e-41
36	0xaf8b154e	-2.529909e-10
37	0x8000af30	-6.2845e-41
38	0xa8b31215	-1.9880834e-14
39	0x00009db8	5.6579e-41
40	0x291717bc	3.354932e-14
41	0x2886e6ef	1.497714e-14
42	0x089937bb	9.221455e-34
43	0x80009db8	-5.6579e-41
44	0xa5a23fb5	-2.814569e-16
45	0x29014418	2.8702816e-14
46	0x0000899b	4.9364e-41
47	0x80008ae4	-4.9825e-41
48	0x24762bef	5.337996e-17
49	0xa85e7004	-1.2347765e-14
50	0x290d2e06	3.1348208e-14
51	0xa8b0969b	-1.960524e-14
52	0x27cd0655	5.6905795e-15
53	0xa51b39e5	-1.3463722e-16
54	0x282625ee	9.223076e-15
55	0xa4a83ac4	-7.295794e-17
56	0x0000a76f	6.0064e-41
57	0xa83eec84	-1.0598405e-14
58	0x800088ba	-4.9048e-41
59	0x0000ae64	6.256e-41
60	0x00008b17	4.9896e-41
61	0xa5328e66	-1.5487285e-16
62	0xa40a75d5	-3.0023788e-17
63	0x27f1c352	6.7102704e-15
64	0xa43a7899	-4.043447e-17
65	0xa82a416e	-9.4510835e-15
66	0x0000891f	4.919e-41
67	0xa8e0034f	-2.487043e-14
68	0x266f8bd6	8.3109295e-16
69	0x80009858	-5.465e-41
70	0xa914b928	-3.30232e-14
71	0x000090ec	5.1988e-41
72	0x80009c5c	-5.6091e-41
73	0xa30d9153	-7.674399e-18
74	0x000088bc	4.9051e-41
75	0xa8f084c8	-2.6702937e-14
76	0x00009093	5.1863e-41
77	0xa801db4c	-7.208491e-15
78	0x00009d01	5.6322e-41
79	0xa8728c20	-1.3464083e-14
80	0x00009fa6	5.7271e-41
81	0x800098cb	-5.4812e-41
82	0x800089db	-4.9453e-41
83	0x8000ace7	-6.2026e-41
84	0xa7a6adf3	-4.626285e-15
85	0x27b85cf3	5.1171035e-15
86	0xa572cc3c	-2.1059351e-16
87	0x00008ac0	4.9774e-41
88	0xa930d756	-3.9266625e-14
89	0x273fd409	2.662152e-15
90	0x00008b3c	4.9948e-41
91	0xa6cfbd84	-1.4414879e-15
92	0x00009d24	5.6371e-41
93	0x8000898c	-4.9343e-41
94	0x800089b0	-4.9393e-41
95	0x28109002	8.0248325e-15
96	0xa927be2c	-3.7246397e-14
97	0xa8acee6a	-1.9199232e-14
98	0x8000afc0	-6.3047e-41
99	0x24bf9d53	8.3099564e-17
100	0xa3430cf1	-1.0573712e-17
101	0x284fdc7f	1.1538621e-14
102	0xa8cb9727	-2.260308e-14
103	0xa4e64d79	-9.9877844e-17
104	0x00009fb5	5.7292e-41
105	0x0000937e	5.291e-41
106	0x25bf6e4b	3.3207956e-16
107	0x289c90e8	1.7382322e-14
108	0xa8b49ffe	-2.00534e-14
109	0x80008a40	-4.9595e-41
110	0xa882ed8c	-1.4535919e-14
111	0x80008ade	-4.9816e-41
112	0x288ebfbb	1.5848317e-14
113	0xa8112cdf	-8.058847e-15
114	0xa38316e0	-1.4212736e-17
115	0x0000aa99	6.1199e-41
116	0x80009798	-5.4382e-41
117	0x00009b27	5.5658e-41
118	0xa586fb42	-2.3415553e-16
119	0x2822507a	9.010257e-15
120	0x2429e98c	3.6843855e-17
121	0x27e5bb27	6.376318e-15
122	0x0000ab99	6.1558e-41
123	0xa8c93ca5	-2.2341783e-14
124	0x0000a69a	5.9765e-41
125	0xa8c59e2d	-2.1939991e-14
126	0x0000aca9	6.1939e-41
127	0x0000acf2	6.2041e-41
128	0x80008cb8	-5.048e-41
129	0x0000912d	5.2079e-41
130	0x38635c35	5.4206892e-05
131	0x32ccda10	2.3847889e-08
132	0x80009477	-5.3259e-41
133	0x37c64e0b	2.3639781e-05
134	0xb8143f9b	-3.5345187e-05
135	0x38542e5a	5.0587907e-05
136	0x389d164b	7.490496e-05
137	0x2839fc2e	1.0324246e-14
138	0xb82b4d0d	-4.0841336e-05
139	0x38c3d4ed	9.337985e-05
140	0x80008952	-4.9261e-41
141	0x3959d8ec	0.00020775542
142	0x3739d18b	1.1075647e-05
143	0x00008bd9	5.0168e-41
144	0x92725ccb	-7.647611e-28
145	0x00008ff1	5.1636e-41
146	0x39893cdc	0.0002617602
147	0x8000894b	-4.9251e-41
148	0x80008f6f	-5.1454e-41
149	0xb910eefe	-0.00013821942
150	0x38a7bc65	7.998272e-05
151	0x39269f07	0.00015890236
152	0x8000aa6a	-6.1133e-41
153	0x387577e6	5.8524216e-05
154	0x00009fbd	5.7303e-41
155	0x800097b9	-5.4428e-41
156	0x80008960	-4.9281e-41
157	0x3ae287f9	0.0017282955
158	0x393afd10	0.00017832615
159	0x378e0475	1.6929795e-05
160	0xb89eda56	-7.574695e-05
161	0x37f0fe84	2.8728748e-05
162	0x38c4929e	9.373318e-05
163	0x80008939	-4.9226e-41
164	0xba6bec3d	-0.0008999741
165	0x00008ce1	5.0538e-41
166	0x38e79e48	0.000110444205
167	0x8f82ec31	-1.2909967e-29
168	0xb8dd08bd	-0.00010539729
169	0xb8da17eb	-0.00010399505
170	0x22401f6d	2.6037489e-18
171	0x80008930	-4.9214e-41
172	0xb8004f5b	-3.0591484e-05
173	0x3801c77a	3.0941774e-05
174	0x800089f9	-4.9495e-41
175	0x800089d4	-4.9443e-41
176	0x39487628	0.00019117503
177	0x371c2e1d	9.309061e-06
178	0xb92c373f	-0.00016423779
179	0x38af0ed8	8.347415e-05
180	0xb8b742a1	-8.7385306e-05
181	0x38caf996	9.6785996e-05
182	0xb8df1bad	-0.00010638624
183	0xb6633d46	-3.3861302e-06
184	0x8000afb9	-6.3037e-41
185	0xb7878fe6	-1.6160262e-05
186	0xa0d94a31	-3.6810326e-19
187	0x0000ab65	6.1485e-41
188	0x80008a0f	-4.9526e-41
189	0x391b8563	0.00014831642
190	0x368c8f6e	4.1890225e-06
191	0x37ffba9e	3.048527e-05
192	0xb6157c5b	-2.2275115e-06
193	0x3853c8a7	5.0493192e-05
194	0x000089a0	4.937e-41
195	0x392327c1	0.00015559701
196	0x38c7d1c0	9.5281284e-05
197	0x000096cf	5.41e-41
198	0xb8dbcdb4	-0.00010481049
199	0x000089a1	4.9372e-41
200	0x8000897a	-4.9317e-41
201	0x393235e8	0.00016995484
202	0x80005e55	-3.384e-41
203	0x39b96aac	0.00035365426
204	0x21613713	7.6305855e-19
205	0xb6047712	-1.973884e-06
206	0x00008a0e	4.9525e-41
207	0xb7f08eea	-2.8676779e-05
208	0x800088d8	-4.909e-41
209	0x00009099	5.1872e-41
210	0x0000892d	4.921e-41
211	0x00008ae5	4.9826e-41
212	0x37b72318	2.1831642e-05
213	0xb904ef20	-0.00012677582
214	0xb7d1c00d	-2.5004172e-05
215	0x000089f7	4.9492e-41
216	0x38452080	4.6998728e-05
217	0xb82e7932	-4.1597705e-05
218	0x80008985	-4.9333e-41
219	0x38e657d6	0.00010983615
220	0x0000894e	4.9256e-41
221	0x80008909	-4.9159e-41
222	0xa220d3fe	-2.1796271e-18
223	0x382a0c41	4.054257e-05
224	0x390c66f7	0.00013389798
225	0xb9b6b4e0	-0.00034848507
226	0x80008afa	-4.9855e-41
227	0xb7bcd7d7	-2.2511855e-05
228	0x38219192	3.8520964e-05
229	0x38ff3caa	0.00012170647
230	0xba002dc8	-0.00048896344
231	0x39969bbb	0.00028726258
232	0x8000924a	-5.2479e-41
233	0x00008919	4.9181e-41
234	0x388f00f9	6.8189525e-05
235	0xb6ef771a	-7.1366203e-06
236	0x34ca73b0	3.7709606e-07
237	0x00008972	4.9306e-41
238	0x3766f473	1.3765984e-05
239	0x83dfd09a	-1.3154655e-36
240	0x390c97f8	0.00013408053
241	0x372b4b38	1.02099075e-05
242	0xb9a77e51	-0.00031946835
243	0x00008a27	4.956e-41
244	0x00008fa5	5.153e-41
245	0x80008df3	-5.0922e-41
246	0x391198cc	0.00013885199
247	0xb87e70b9	-6.06633e-05
248	0xba224e3d	-0.0006191468
249	0xb89e56ec	-7.5502176e-05
250	0x00008a09	4.9518e-41
251	0x3740bd92	1.148823e-05
252	0x00009a2f	5.531e-41
253	0x38781a45	5.9152273e-05
254	0x00008920	4.9191e-41
255	0x8000a0c8	-5.7677e-41

convpools.2.conv.bias f4 [128]
0	0xbaac0b83	-0.0013125989
1	0xa23bc526	-2.5447595e-18
2	0xb92e7833	-0.00016638711
3	0xbac42a03	-0.0014966134
4	0xb523c270	-6.1005176e-07
5	0x3e4edbe1	0.20201065
6	0x3e02c525	0.12770517
7	0x3d3c0e77	0.045912232
8	0x3e3e1efc	0.18566507
9	0xba97953a	-0.0011564859
10	0x3d98a1ef	0.074527614
11	0x3deb30bd	0.114839055
12	0xba16ee2f	-0.0005757538
13	0x3ca1678b	0.019702693
14	0x3e51b692	0.20479801
15	0xb95a37c3	-0.00020810873
16	0xbb2f19cc	-0.0026718257
17	0xae0e08d7	-3.2294913e-11
18	0x3e2b40b2	0.16723898
19	0xb9125545	-0.0001395541
20	0xbada986b	-0.0016677504
21	0x3e1880b2	0.14892843
22	0x3d5ae88f	0.05344444
23	0x3c0ce547	0.008599586
24	0xb942943d	-0.00018556505
25	0x3e4079f0	0.18796515
26	0xb9832243	-0.00025011794
27	0xb630dc0a	-2.6354123e-06
28	0xb2ae92b4	-2.0322979e-08
29	0xba95030f	-0.0011368709
30	0x3d722b1c	0.059123144
31	0x3e373c8c	0.1789419
32	0x3e0d3d1f	0.13792847
33	0x3d7a94af	0.061176952
34	0x3bb64b53	0.0055631786
35	0xb9b47ba6	-0.000344244
36	0x3cf4ef3e	0.029899236
37	0xb7453771	-1.17550235e-05
38	0x3e357e88	0.17724049
39	0xbb085c1f	-0.0020806862
40	0x3e12fb9d	0.14353795
41	0x3e15a9a0	0.14615488
42	0xb8c836ff	-9.546987e-05
43	0xbb4fde5e	-0.0031718235
44	0x3bfa2e98	0.007634949
45	0x3e35bbf9	0.17747487
46	0xb76d72d8	-1.415304e-05
47	0xb49397c0	-2.7491296e-07
48	0x3c8d84fc	0.017275326
49	0x3e3c8363	0.18409495
50	0x3d396bc8	0.045268804
51	0x3e5a9afc	0.21348184
52	0x3e2f6c27	0.171311
53	0x3b8ffe3e	0.0043943217
54	0x3d00ed30	0.0314762
55	0x3c4e7360	0.01260075
56	0xaa918588	-2.584983e-13
57	0x3e5ccb04	0.2156182
58	0xb90f9bc7	-0.00013695574
59	0xada21f99	-1.84313e-11
60	0xbb038479	-0.0020067974
61	0x3ca2d198	0.019875333
62	0x3b4b5f2b	0.0031032066
63	0x3e076abe	0.13224313
64	0x3c03fa5b	0.008055295
65	0x3e3a6756	0.18203482
66	0xbaaec5d6	-0.0013334106
67	0x3ca90da8	0.020636395
68	0x3d1fecea	0.0390443
69	0xb8ec619c	-0.00011271538
70	0x3e3c8916	0.18411669
71	0xb9106561	-0.00013770677
72	0xab0c549d	-4.9855416e-13
73	0x3ce41cce	0.027845766
74	0xb98fe15f	-0.00027443
75	0x3d61c4ee	0.055119447
76	0xb42861c7	-1.568179e-07
77	0x3e3219ad	0.17392607
78	0x9c963233	-9.939144e-22
79	0x3c5ae79c	0.013360884
80	0xb6eaedd4	-7.0014303e-06
81	0xb99efe94	-0.00030325784
82	0xa3299114	-9.19223e-18
83	0xa6966e49	-1.0438234e-15
84	0x3e160c62	0.14653161
85	0x3df720a0	0.120667696
86	0x3df5a1c8	0.11993748
87	0xb5889d10	-1.0178501e-06
88	0x3c3dcc02	0.011584284
89	0x3e57a48b	0.21058862
90	0xb112a8c1	-2.1341722e-09
91	0x3e4e00f6	0.20117554
92	0xb7e417d6	-2.7190817e-05
93	0xb238c971	-1.0756012e-08
94	0xbb2c54f7	-0.002629576
95	0x3c9b492f	0.018955795
96	0x3dfd7ea5	0.12377671
97	0x3e34ed1c	0.17668575
98	0xb477a42c	-2.3063393e-07
99	0x3e37d921	0.17953922
100	0x3b7d64f1	0.0038664902
101	0x3d83a7d2	0.064284936
102	0x3d41bb08	0.047297508
103	0x3c8a136f	0.01685497
104	0xb649f10d	-3.0091644e-06
105	0x87c4f605	-2.96354e-34
106	0x3e2b435d	0.16724916
107	0x3d54cce0	0.051953197
108	0x3d82bf69	0.06384165
109	0xb4b4983c	-3.3638378e-07
110	0x3e428cff	0.18999098
111	0xbb38661d	-0.0028137036
112	0x3d2be067	0.041962054
113	0x3ca46bdf	0.020070968
114	0x3b9a5bab	0.0047106347
115	0xb91f9ef0	-0.0001522263
116	0xb993187e	-0.00028056273
117	0xac944f57	-4.2152215e-12
118	0x3c7e00eb	0.015503149
119	0x3db3dfc2	0.08782913
120	0x3b9480ad	0.004531941
121	0x3dd09f87	0.101866774
122	0xba564ac2	-0.0008174592
123	0x3d9519a0	0.07280278
124	0xad0e6ac3	-8.095471e-12
125	0x3e0d87a2	0.13821271
126	0xbab3bf05	-0.0013713544
127	0xaa3fbc76	-1.7029593e-13

convpools.2.pool.score_layer.weight f4 [128, 1]
0	0x800089c8	-4.9427e-41
1	0x80009892	-5.4732e-41
2	0xb967e0fd	-0.00022113691
3	0xbaa733ef	-0.0012756566
4	0x000095e2	5.3768e-41
5	0x3e3f64a1	0.1869073
6	0x3d99502e	0.07485996
7	0x3d1b1839	0.037864897
8	0x3d9dfddb	0.07714435
9	0x39ba8262	0.00035573827
10	0x3dbd6e65	0.09249572
11	0x3d7fb630	0.062429607
12	0x2daba50d	1.9513747e-11
13	0x3c2fe43b	0.010735567
14	0x3e014759	0.12624873
15	0xb0037128	-4.7818327e-10
16	0x8337a9dd	-5.397386e-37
17	0x000096e7	5.4134e-41
18	0x3e2ee645	0.17080028
19	0x00008a3a	4.9586e-41
20	0x00008921	4.9193e-41
21	0x3e3e1d37	0.18565832
22	0x3cd9c316	0.026582282
23	0x3bbceb0f	0.005765326
24	0x80009b6b	-5.5753e-41
25	0x3dd5d56b	0.10441097
26	0x00008de8	5.0906e-41
27	0x000092aa	5.2613e-41
28	0x8000893a	-4.9228e-41
29	0xbabfb4a2	-0.0014625976
30	0x3d0ad347	0.033892896
31	0x3e44d76a	0.19222799
32	0x3db7263e	0.08942841
33	0x3dbf744e	0.09348355
34	0x3b939319	0.0045036194
35	0x00008970	4.9303e-41
36	0x3c669473	0.014073479
37	0x00009c0e	5.5982e-41
38	0x3e2a47cb	0.1662895
39	0x000095fd	5.3806e-41
40	0x3e2d29ed	0.16910525
41	0x3de63248	0.11240059
42	0x390ddb5d	0.00013528527
43	0xa83508af	-1.0049401e-14
44	0x3b9447e3	0.004525171
45	0x3e177f32	0.14794615
46	0x0f70e84a	1.1877651e-29
47	0x00008909	4.9159e-41
48	0x3c0e7d41	0.008696855
49	0x3e218436	0.1577309
50	0x3d5f9e3f	0.054594275
51	0x3e20c8f2	0.15701655
52	0x3e1b3873	0.15158252
53	0x3b94591b	0.0045272238
54	0x3cc82ef1	0.024436446
55	0x3c008085	0.007843141
56	0x80009876	-5.4693e-41
57	0x3e27bcc2	0.16380599
58	0xa20cf747	-1.9104446e-18
59	0x0000a57f	5.9369e-41
60	0x3a922bdb	0.0011151986
61	0x3c3519d5	0.011053522
62	0x3b363ea0	0.0027808324
63	0x3d5f822e	0.05456751
64	0x3bd9af0b	0.006643181
65	0x3e4b2c83	0.19841199
66	0x800088fd	-4.9142e-41
67	0x3c201b55	0.009772141
68	0x3cda7153	0.026665365
69	0x00009b7a	5.5774e-41
70	0x3e3a21e9	0.18176998
71	0xb80fc339	-3.4275672e-05
72	0x800089b5	-4.94e-41
73	0x3c6e186c	0.01453219
74	0x3bbccfa0	0.0057620555
75	0x3d5563f2	0.05209727
76	0x800088c4	-4.9062e-41
77	0x3dc77eba	0.09740968
78	0x000092ea	5.2703e-41
79	0x3c08cc55	0.008349498
80	0x2105739d	4.5215166e-19
81	0x00008f84	5.1484e-41
82	0x00008965	4.9288e-41
83	0x800089c9	-4.9428e-41
84	0x3d6dc19a	0.05804596
85	0x3d8477fd	0.064681984
86	0x3d90504e	0.07046567
87	0x800089ef	-4.9481e-41
88	0x3bed2ebd	0.0072382377
89	0x3e161026	0.14654598
90	0x000089be	4.9413e-41
91	0x3e25d948	0.16196167
92	0x000098a3	5.4756e-41
93	0x800089fb	-4.9498e-41
94	0x22b15a49	4.807154e-18
95	0x3c199dc5	0.009375994
96	0x3da7cacd	0.08192978
97	0x3e2b0e43	0.16704659
98	0x00008af9	4.9854e-41
99	0x3da10805	0.07862858
100	0x3b2b4f8f	0.002613995
101	0x3d0fe1e6	0.035127543
102	0x3d735b89	0.059413467
103	0x3c14f95b	0.009092654
104	0x8000a133	-5.7827e-41
105	0x000089b0	4.9393e-41
106	0x3dedbc29	0.11608154
107	0x3d370ca9	0.044689808
108	0x3d6a4fbd	0.05720495
109	0x000089e0	4.946e-41
110	0x3e24d9c4	0.16098696
111	0x00008ab3	4.9756e-41
112	0x3d046b66	0.032328986
113	0x3c23f86d	0.01000796
114	0x3bdc9c64	0.0067325104
115	0x2ea5db2a	7.5422626e-11
116	0x800089d8	-4.9449e-41
117	0x80008d70	-5.0738e-41
118	0x3c064df7	0.008197299
119	0x3d83d5e9	0.064372845
120	0x3a8d95e8	0.0010802122
121	0x3d933bb6	0.07189123
122	0x317ddaa1	3.6940622e-09
123	0x3d97e1d2	0.07416119
124	0x8000a0bc	-5.766e-41
125	0x3e371259	0.17878093
126	0xb60b94bb	-2.0799187e-06
127	0x0000907a	5.1828e-41

convpools.3.conv.weight f4 [128, 128]
0	0x80008a8d	-4.9703e-41
1	0x80008f1d	-5.134e-41
2	0x00008cc8	5.0503e-41
3	0x8000935b	-5.2861e-41
4	0x00008e44	5.1035e-41
5	0x00009fad	5.7281e-41
6	0x8000a8ab	-6.0507e-41
7	0x800099fe	-5.5242e-41
8	0x0000a57e	5.9367e-41
9	0x0000a874	6.043e-41
10	0x00008e44	5.1035e-41
11	0x0000a228	5.8171e-41
12	0x800094a6	-5.3325e-41
13	0x000099d8	5.5189e-41
14	0x80008df4	-5.0923e-41
15	0x00009d2f	5.6387e-41
16	0x80008abb	-4.9767e-41
17	0x8000a2df	-5.8427e-41
18	0x00008968	4.9292e-41
19	0x800094ee	-5.3426e-41
20	0x0000a25a	5.8241e-41
21	0x00009376	5.2899e-41
22	0x00008f62	5.1436e-41
23	0x00008ca8	5.0458e-41
24	0x800092cb	-5.266e-41
25	0x8000a0fe	-5.7753e-41
26	0x00008a2b	4.9565e-41
27	0x800088fe	-4.9144e-41
28	0x0000981a	5.4564e-41
29	0x80008963	-4.9285e-41
30	0x0000ac55	6.1821e-41
31	0x80008983	-4.933e-41
32	0x800095f1	-5.3789e-41
33	0x80008cda	-5.0528e-41
34	0x0000aa98	6.1198e-41
35	0x80008e9a	-5.1156e-41
36	0x00008ac6	4.9783e-41
37	0x80009951	-5.5e-41
38	0x80009699	-5.4024e-41
39	0x80009f28	-5.7095e-41
40	0x000098ae	5.4771e-41
41	0x00008987	4.9336e-41
42	0x000098be	5.4794e-41
43	0x00009db4	5.6573e-41
44	0x0000a6fc	5.9903e-41
45	0x80009ff8	-5.7386e-41
46	0x00009750	5.428e-41
47	0x00009f78	5.7207e-41
48	0x00009dad	5.6563e-41
49	0x80009d56	-5.6441e-41
50	0x8000958f	-5.3652e-41
51	0x8000a461	-5.8968e-41
52	0x8000898d	-4.9344e-41
53	0x80008a60	-4.964e-41
54	0x800088de	-4.9099e-41
55	0x0000ade9	6.2387e-41
56	0x0000912a	5.2075e-41
57	0x0000a25f	5.8248e-41
58	0x80008de4	-5.0901e-41
59	0x8000998a	-5.508e-41
60	0x80008945	-4.9243e-41
61	0x000091c7	5.2295e-41
62	0x80009ac4	-5.552e-41
63	0x80009436	-5.3168e-41
64	0x80009218	-5.2409e-41
65	0x8000918e	-5.2215e-41
66	0x0000945e	5.3224e-41
67	0x80009c0a	-5.5976e-41
68	0x80008cb6	-5.0478e-41
69	0x80009bba	-5.5864e-41
70	0x80008bad	-5.0106e-41
71	0x00009928	5.4942e-41
72	0x800095e1	-5.3766e-41
73	0x000094e2	5.3409e-41
74	0x00008ed2	5.1234e-41
75	0x800097cf	-5.4459e-41
76	0x00009f38	5.7117e-41
77	0x00009796	5.4379e-41
78	0x80008a15	-4.9534e-41
79	0x000092be	5.2641e-41
80	0x8000a661	-5.9686e-41
81	0x80009ad6	-5.5545e-41
82	0x000088d9	4.9092e-41
83	0x00008b56	4.9984e-41
84	0x800095f8	-5.3799e-41
85	0x800094d5	-5.3391e-41
86	0x80008f30	-5.1366e-41
87	0x8000aed6	-6.272e-41
88	0x0000a2ac	5.8356e-41
89	0x80009332	-5.2804e-41
90	0x80009b91	-5.5807e-41
91	0x8000af94	-6.2986e-41
92	0x80009f99	-5.7253e-41
93	0x00009884	5.4712e-41
94	0x0000940c	5.3109e-41
95	0x00008a33	4.9577e-41
96	0x8000979b	-5.4386e-41
97	0x80008fc4	-5.1573e-41
98	0x0000a5a1	5.9416e-41
99	0x8000a169	-5.7903e-41
100	0x0000ac34	6.1775e-41
101	0x8000890e	-4.9166e-41
102	0x8000a655	-5.9669e-41
103	0x800098ef	-5.4862e-41
104	0x8000a389	-5.8665e-41
105	0x80008ae2	-4.9822e-41
106	0x00009f10	5.7061e-41
107	0x80009a7c	-5.5419e-41
108	0x0000abc2	6.1615e-41
109	0x80008a46	-4.9603e-41
110	0x8000a2e2	-5.8431e-41
111	0x0000a0c7	5.7676e-41
112	0x8000a6c7	-5.9828e-41
113	0x8000a542	-5.9283e-41
114	0x80009239	-5.2455e-41
115	0x00008dcc	5.0867e-41
116	0x80008b97	-5.0075e-41
117	0x00009e66	5.6823e-41
118	0x80009592	-5.3656e-41
119	0x80009b86	-5.5791e-41
120	0x80008e54	-5.1058e-41
121	0x000096db	5.4117e-41
122	0x00009b63	5.5742e-41
123	0x00009cfe	5.6318e-41
124	0x00008985	4.9333e-41
125	0x00009932	5.4956e-41
126	0x80009dd8	-5.6624e-41
127	0x80008f63	-5.1437e-41
128	0x0000a253	5.8231e-41
129	0x80008f95	-5.1508e-41
130	0x0000a302	5.8476e-41
131	0x8000af4c	-6.2885e-41
132	0x000091b8	5.2274e-41
133	0x8000a4e7	-5.9156e-41
134	0x0000a622	5.9597e-41
135	0x00009b4d	5.5711e-41
136	0x000091ce	5.2305e-41
137	0x80009d74	-5.6484e-41
138	0x0000902b	5.1718e-41
139	0x0000934f	5.2844e-41
140	0x800094e4	-5.3412e-41
141	0x00009f55	5.7158e-41
142	0x0000a52e	5.9255e-41
143	0x0000a3b9	5.8733e-41
144	0x80009a93	-5.5451e-41
145	0x8000a0e8	-5.7722e-41
146	0x800090dc	-5.1966e-41
147	0x00009fb0	5.7285e-41
148	0x0000a492	5.9037e-41
149	0x0000a19a	5.7972e-41
150	0x80008e83	-5.1124e-41
151	0x80008d71	-5.074e-41
152	0x0000a14a	5.786e-41
153	0x8000a546	-5.9289e-41
154	0x000089fc	4.95e-41
155	0x00009ed8	5.6982e-41
156	0x00008f8b	5.1494e-41
157	0x80009470	-5.325e-41
158	0x800098df	-5.484e-41
159	0x00009777	5.4335e-41
160	0x0000a5e9	5.9517e-41
161	0x00009e81	5.686e-41
162	0x80008e95	-5.1149e-41
163	0x80008e87	-5.1129e-41
164	0x8000af40	-6.2868e-41
165	0x0000a60e	5.9569e-41
166	0x0000a727	5.9963e-41
167	0x0000a30c	5.849e-41
168	0x0000a156	5.7876e-41
169	0x0000aa28	6.104e-41
170	0x00009f31	5.7107e-41
171	0x80009c74	-5.6125e-41
172	0x800091b0	-5.2263e-41
173	0x80008d25	-5.0633e-41
174	0x8000a651	-5.9663e-41
175	0x80009b24	-5.5654e-41
176	0x80009c6b	-5.6112e-41
177	0x80008ffe	-5.1655e-41
178	0x0000a216	5.8145e-41
179	0x00009252	5.249e-41
180	0x0000a0ba	5.7658e-41
181	0x80008959	-4.9271e-41
182	0x00009b07	5.5613e-41
183	0x8000898b	-4.9341e-41
184	0x0000a34e	5.8583e-41
185	0x8000987b	-5.47e-41
186	0x8000af4e	-6.2887e-41
187	0x80009742	-5.4261e-41
188	0x0000996c	5.5037e-41
189	0x80009b8f	-5.5804e-41
190	0x8000a9ab	-6.0865e-41
191	0x0000a01e	5.7439e-41
192	0x8000a588	-5.9381e-41
193	0x8000afa5	-6.301e-41
194	0x0000a75c	6.0037e-41
195	0x000094ff	5.345e-41
196	0x00008afd	4.986e-41
197	0x0000a19e	5.7977e-41
198	0x0000ae36	6.2495e-41
199	0x8000acfb	-6.2054e-41
200	0x0000a987	6.0815e-41
201	0x80009b76	-5.5769e-41
202	0x8000a82f	-6.0333e-41
203	0x000090ff	5.2015e-41
204	0x00008a26	4.9558e-41
205	0x800096ea	-5.4138e-41
206	0x000089c4	4.9421e-41
207	0x0000ac65	6.1844e-41
208	0x0000a444	5.8927e-41
209	0x800089c2	-4.9418e-41
210	0x000088c7	4.9066e-41
211	0x00008fa9	5.1536e-41
212	0x80009b72	-5.5763e-41
213	0x00008c44	5.0318e-41
214	0x000094f0	5.3429e-41
215	0x800089e7	-4.947e-41
216	0x0000aed8	6.2722e-41
217	0x8000ae21	-6.2466e-41
218	0x8000a4ab	-5.9072e-41
219	0x8000949b	-5.331e-41
220	0x0000a0fb	5.7749e-41
221	0x8000a5cb	-5.9475e-41
222	0x00009403	5.3097e-41
223	0x80008f17	-5.1331e-41
224	0x80008b68	-5.001e-41
225	0x80009a01	-5.5246e-41
226	0x000095a4	5.3681e-41
227	0x00009921	5.4932e-41
228	0x8000a7c3	-6.0182e-41
229	0x8000a5f6	-5.9536e-41
230	0x0000969f	5.4033e-41
231	0x00008faf	5.1544e-41
232	0x80009f44	-5.7134e-41
233	0x80008a55	-4.9624e-41
234	0x0000a137	5.7833e-41
235	0x8000ab1d	-6.1384e-41
236	0x8000895b	-4.9274e-41
237	0x00009908	5.4897e-41
238	0x800090a2	-5.1884e-41
239	0x00009fcb	5.7323e-41
240	0x800097b3	-5.442e-41
241	0x8000a0cc	-5.7683e-41
242	0x0000a295	5.8323e-41
243	0x00008c20	5.0267e-41
244	0x00008ca9	5.046e-41
245	0x0000acc0	6.1971e-41
246	0x00009e88	5.687e-41
247	0x80009e60	-5.6814e-41
248	0x00009de5	5.6642e-41
249	0x00009cd8	5.6265e-41
250	0x80009954	-5.5004e-41
251	0x80008d0c	-5.0598e-41
252	0x80008985	-4.9333e-41
253	0x0000a5da	5.9496e-41
254	0x8000af0b	-6.2794e-41
255	0x000089bd	4.9411e-41
